features/incremental_bert_embeddings_layer12_PCA_dims_15.npy (npy, 621248 bytes, 1 tensors)

array f8 [5176, 15]
-2.320499044008873 4.725509739229024 -3.131222634774678 0.9361271374647515 -1.0057223838001288 2.8401212752754232 3.320120420596407 1.6530712391720817
-0.6595297781398684 -1.3089411730191438 -0.0998693622709392 0.7856864225921001 -0.4372047789793937 0.9593808981805063 1.0782825204645206 -2.220024417799247
3.0189991238564358 -2.3175881837080423 1.3482478703489496 0.3947133125450659 0.3118007384480486 2.7917724934464423 1.1973093017497431 -0.29275154539571224
0.07736388442138362 -0.6038834215504923 0.8290496889240979 0.20129644642837818 0.5460201790797272 0.3881904661967071 -1.9303046661339303 2.8035894973301256
-1.5371997116017626 1.2260694610425016 1.4274022087350193 0.0646081192392057 2.0597818378054504 1.0299139062296554 0.3026098184430936 -0.21909249277535262
0.6289100215014134 0.9900127902008438 0.12242883358355541 0.36549631780830794 1.090919085970683 -1.6097186712995455 1.678157463878751 -1.0556089444276453
1.2420584291637216 1.8485569560688044 -0.5839367409262516 2.1133677334858283 0.832494936624197 0.6196887207872952 -0.4774050371464331 0.8162076364591959
0.5067758769254711 0.4944026507643901 -0.03555657889051092 1.0057818763183557 -1.5336631319122997 0.9897579691535604 -0.7899561894112144 1.1253215885652197
2.122727430316619 -0.6780568376528838 1.9890861219539258 0.9409490278804838 0.38398350231995265 -0.332556662784651 0.7125743658693627 0.41228006293954017
0.5132952354727544 0.06702553640129208 0.8969722065973599 -1.239966584519849 0.4615941261501118 -0.3302794418110754 1.109546582405503 2.3842973938135477
-0.5290961107146783 1.9376011433363405 0.9248999472118655 0.2324136966154412 -0.26811106359990083 0.7964997559384376 0.4792792689543531 0.6490050549819462
-0.07272509144033665 0.8677223767813868 -1.0517643287890814 0.27309401237082287 -0.3713432704549035 1.0876393006935137 2.417546363206222 -0.3557950381460964
1.662412618598444 1.0624075293199766 0.17288051882281108 -0.2718585483089899 0.5114518735674923 0.3151542582501498 0.4177390557201692 -0.1259624200071801
0.9282722248885807 -0.9879971568396659 0.11575534308604082 -0.3294392050478674 0.9576625009347391 2.2736991698712576 -0.13546279151924376 1.2702261463823588
0.7645586879893469 0.1223840043599897 -0.25181971478748916 0.08297629930372583 0.15746936504700018 0.4810574885541861 0.1476878849174251 0.6830876217596552
-0.796556595873249 -0.2509017302639529 -0.40185548780380254 0.9678360009954091 2.2786964652583643 -0.07046142945275928 1.2455033756665088 0.9608977298186587
0.4854678942008639 -0.05449830616178438 -0.0251529100663392 0.015911589536808133 0.5766208023567767 -0.026345653962638958 0.4525631419855641 -0.821462153376158
-0.42318896418808993 -0.4474816469492968 0.8583765511666086 2.214163563356447 0.10768043221676758 1.2176980920460208 0.8412177663850914 0.338410640889194
0.11252505705007246 -0.10065227597632466 -0.06195648038674957 0.60717328927436 0.04938771623129034 0.4517753891781725 -0.5931796267467846 -0.7503735463256788
-0.36173112463589824 0.8067728707560581 2.4281452149563436 0.26864948188878485 1.2972442543878744 0.9578400510046889 0.4554436002807305 0.1303895603823633
0.09714604021129648 -0.11939704729232098 0.6214516691060123 -0.025416402161106688 0.3961639554493833 -0.4669280498688988 -0.794364876431913 -0.368659439499687
0.7013897617097653 2.3338825099087073 0.5893761911431535 1.2646433641736783 0.7958225055202464 0.5558983292136784 0.06311197544608284 0.28151620135111555
-0.13318563919470566 0.6333463209520751 -0.041452900024160126 0.44352293021635864 -0.3169236538999719 -0.8400025993136081 -0.29335134418432357 0.7510832420280554
2.4148421176658332 0.6386996557571458 1.3080970507414016 0.6823740570632901 0.6071846027584001 0.15073632410797008 0.4077059061502922 -0.17428645310964083
0.6221641084529645 -0.07037869293842905 0.4799540367648369 0.0171611564995235 -1.2092839949147312 -0.3794989064643884 0.9768880312276891 2.128048227736523
0.9263123681371874 1.2626493837441692 0.6154144382526786 0.4944635768292511 0.2712619805534846 0.3305675062665196 -0.3879803398590848 0.5550750626698678
0.18092490117936083 0.4057682130924559 0.010815868742010614 -1.3106900183555887 -0.36967350741130534 0.9003713928956661 2.0557615754308483 1.0228489530690614
1.2457331710696713 0.5366901498077925 0.5064842651176458 0.4060976665955005 0.3217905613735543 -0.4501892367442161 0.5186306156295192 0.16462556448539184
0.40348937160020065 -0.0032975534099956684 -1.270875866841822 -0.2931519882504109 0.8609286848144863 2.046035818962159 1.1832694679092273 1.2724700596310772
0.49464586939194305 0.5717024944227864 0.35952124348672215 0.2873974951598436 -0.4423783321634163 0.5574397767510593 0.18437784263501078 0.3083299048778385
0.00665201219510547 -1.3139067519063965 -0.1687872195848014 0.7078499976673067 2.0790074606105104 1.1582305404686646 1.2222953650418906 0.23884343700557328
0.46766705483779475 0.41385983073317306 0.14848840261668483 -0.4090633422958119 0.5126477276998408 0.3491750983883114 0.29742715022040733 0.05976888347570871
00000000: c856 83cd 6190 02c0 2fac 6b06 ece6 1240
00000010: 4bd1 e673 be0c 09c0 00e5 09e6 c0f4 ed3f
00000020: 6b6d b45a 7017 f0bf a3da cf80 91b8 0640
00000030: 59f2 894b 9b8f 0a40 8f3c e3d3 fa72 fa3f
00000040: f229 7b31 de1a e5bf e414 a84c 6cf1 f4bf
00000050: ae78 d3dc 0991 b9bf c037 3eda 5724 e93f
00000060: 16c5 d7c0 29fb dbbf c8f4 c291 3fb3 ee3f
00000070: a6e5 132c a540 f13f 5627 7629 9cc2 01c0
00000080: a9ed 3c03 e926 0840 06fa 74ac 6b8a 02c0
00000090: 62ce e05b 6c92 f53f 1452 2ba0 fb42 d93f
000000a0: 7531 a015 8bf4 d33f 7bcc 29d1 8c55 0640
000000b0: 4c63 63cc 2d28 f33f aafe 54fa 70bc d2bf
000000c0: d63a 7b99 1ece b33f 83fd 4453 0353 e3bf
000000d0: e203 9636 9387 ea3f c8fe 1afb 14c4 c93f
000000e0: ce4f 834f ff78 e13f 35c4 3bd3 1cd8 d83f
000000f0: 6ac8 4525 87e2 febf 2789 9354 c06d 0640
00000100: d400 8cb9 5e98 f8bf 8bd4 dc02 fb9d f33f
00000110: c814 ccb2 a3d6 f63f b63e 305f 288a b03f
00000120: 4b27 72e6 6e7a 0040 503b 0f01 877a f03f
00000130: 6757 6a92 f55d d33f f976 a209 390b ccbf
00000140: 1035 cfe8 0720 e43f 4219 914d 2fae ef3f
00000150: 0a2c 54fc 7e57 bf3f 00e3 f2aa 4a64 d73f
00000160: 8238 4d92 6774 f13f bbdf 8f5d 68c1 f9bf
00000170: 505c 0ea4 bbd9 fa3f bae8 5a34 c6e3 f0bf
00000180: 48ab cfa8 78df f33f bebd 7175 b093 fd3f
00000190: 21c1 a61a 9caf e2bf 3bf2 9d57 2de8 0040
000001a0: 5d5e dc6b cca3 ea3f 8468 af70 7dd4 e33f
000001b0: 8855 5fdb cd8d debf 78ce 2a7a 5f1e ea3f
000001c0: e87d 390b 8237 e03f 53ae 0504 4ba4 df3f
000001d0: 541a fcce 7834 a2bf 5126 9bbc ae17 f03f
000001e0: e54e 2a5a e289 f8bf 9309 8fe7 18ac ef3f
000001f0: 0468 d933 5247 e9bf 1aed c535 5101 f23f
00000200: 8841 dc84 58fb 0040 d18b d140 a4b2 e5bf
00000210: 6583 2bf8 4bd3 ff3f b363 be22 411c ee3f
00000220: 33bc 2a8a 2f93 d83f c886 aebd 9b48 d5bf
00000230: 2b0f acc1 68cd e63f b78f c7ea cb62 da3f
00000240: 078a 3121 ea6c e03f ea24 d7e6 9528 b13f
00000250: 3336 980e ffb3 ec3f 4354 8a33 e7d6 f3bf
00000260: 95c9 f516 c28a dd3f 3aa9 4762 4c23 d5bf
00000270: 8f1f cdea b3c0 f13f 11f0 1283 0a13 0340
00000280: 18bb 7ef7 5aee e0bf 0e26 750e 6a00 ff3f
00000290: 5a1b 2bc6 c798 ed3f 648a 0d65 bbbf cd3f
000002a0: d3de 764e bb28 d1bf dde1 600e ed7c e93f
000002b0: b1d2 73f4 82ac de3f aac1 c23f a6c4 e43f
000002c0: 16b9 5591 1c9e b2bf fd11 c9b7 61c4 eb3f
000002d0: d7f9 33d5 06d4 f0bf 3e6e f74e 5f7a d13f
000002e0: 3362 8c90 16c4 d7bf cf2a a577 f866 f13f
000002f0: 9446 348c 2257 0340 dda8 3a8d 58c5 d6bf
00000300: 9b68 55f9 3d99 fa3f 6041 9709 9fff f03f
00000310: 70d0 3ae7 f220 c63f 6c02 8865 2166 d1bf
00000320: e968 ce51 d05d e03f 3f4a 18c4 7c2b d43f
00000330: 831f a597 3cbc da3f 7259 3a5d 891f c0bf
00000340: c3cf f5f3 67b4 ed3f ea5a a536 ac9d efbf
00000350: 564d e464 24a2 bd3f 60da ec2c 8815 d5bf
00000360: 49d9 43d4 2ba5 ee3f b150 bc30 8930 0240
00000370: cb33 b341 d856 c1bf 0cc8 d3a6 d852 f43f
00000380: 642e 19c8 4377 e83f ec98 47e0 8e54 bf3f
00000390: 2305 e06f d01d d0bf a644 da4b ef3d b53f
000003a0: 15d7 7fc6 f427 c43f 0d83 3559 a5c9 de3f
000003b0: 232d dec5 6fe7 c23f 0b53 7892 dadb e53f
000003c0: c609 1642 647d e9bf 5c95 7f21 c60e d0bf
000003d0: 2878 7514 00b8 d9bf a755 8534 83f8 ee3f
000003e0: 225d 5e36 c53a 0240 f306 219f c209 b2bf
000003f0: 60b9 98f2 94ed f33f a6e5 8b98 acbf ee3f
00000400: d871 36ee e711 df3f ebf4 4db5 33e7 abbf
00000410: 3460 8938 afc1 99bf 597a c0b2 204b 903f
00000420: b019 0a78 ad73 e23f 3623 a5e8 5afa 9abf
00000430: fdfd 8c65 cbf6 dc3f eddf 74ff 6a49 eabf
00000440: 50d2 4d2a 8715 dbbf d446 cd0f 8aa3 dcbf
00000450: 4c3e dd19 d277 eb3f d8e2 e462 9bb6 0140
00000460: 0748 cade f190 bb3f ffd3 9bfe b07b f33f
00000470: 3505 6e85 41eb ea3f 0333 cf1a 85a8 d53f
00000480: 62b6 0230 71ce bc3f 8116 96f9 58c4 b9bf
00000490: 1a9d 1282 c2b8 afbf 1c05 8ead f66d e33f
000004a0: df35 13c4 5849 a93f 6a1b 6a52 e3e9 dc3f
000004b0: 5afd 30d7 53fb e2bf 1913 2862 0f03 e8bf
000004c0: 376a 904d 9a26 d7bf 5150 e656 15d1 e93f
000004d0: 3d69 0166 d76c 0340 e12d b398 8d31 d13f
000004e0: 3451 f830 83c1 f43f cca6 bb2d a0a6 ee3f
000004f0: fc34 18ea fc25 dd3f 3181 cae8 9ab0 c03f
00000500: 21b7 a419 90de b83f 2407 5c0d ce90 bebf
00000510: a45b 5b9c eee2 e33f b078 41e0 c106 9abf
00000520: 2295 2010 c05a d93f 1468 f12f 26e2 ddbf
00000530: 7bb7 abe3 6f6b e9bf 79d2 00c3 1d98 d7bf
00000540: 985d 09f1 c871 e63f 461d e697 caab 0240
00000550: 4907 4075 2bdc e23f 7cab 23ae fa3b f43f
00000560: e82a 54c2 6077 e93f 17f6 fb4a ebc9 e13f
00000570: a9e1 863e 1b28 b03f 6638 8687 5c04 d23f
00000580: cead 511e 3a0c c1bf a0fe f080 5f44 e43f
00000590: 3f33 db83 5039 a5bf dd8a 1300 ae62 dc3f
000005a0: a611 3526 7a48 d4bf 0b6c 9321 4de1 eabf
000005b0: 8798 60b7 44c6 d2bf 5db1 22b9 df08 e83f
000005c0: 6d06 83be 9851 0340 5430 ae42 3a70 e43f
000005d0: 9dda 4e2c f7ed f43f ae38 571e 02d6 e53f
000005e0: 336d 6f67 0e6e e33f 6376 2eef 534b c33f
000005f0: 994c 5383 da17 da3f 7ff1 1ebc 044f c6bf
00000600: 889d 51b4 c4e8 e33f ba7a 8188 5604 b2bf
00000610: f33d df22 91b7 de3f 333d b5b7 b192 913f
00000620: 90c2 9b2c 3a59 f3bf c977 08c8 b549 d8bf
00000630: 8c41 3fb0 aa42 ef3f 5583 3326 3e06 0140
00000640: eef1 e0d5 59a4 ed3f a3ee 17d7 cf33 f43f
00000650: c501 b99e 79b1 e33f 47de e28e 4aa5 df3f
00000660: a006 c835 5b5c d13f 0f3d 229d 0428 d53f
00000670: 13e3 cb7d abd4 d8bf 5fc0 1fc7 2cc3 e13f
00000680: 2a77 cc12 8c28 c73f e242 3f3d 1bf8 d93f
00000690: 99b7 3254 a126 863f 8a7e c018 96f8 f4bf
000006a0: ecdd 2112 bba8 d7bf 11b5 d7aa d7cf ec3f
000006b0: 9cca f61f 3372 0040 0fdf 22dd 965d f03f
000006c0: f695 d4e7 85ee f33f 5c50 30d2 902c e13f
000006d0: e2cd 537d 1e35 e03f 109d 4011 81fd d93f
000006e0: 87b2 5070 3798 d43f 8ff7 3484 e6cf dcbf
000006f0: 03a9 9a3b 9f98 e03f 2270 c653 7312 c53f
00000700: ed9c d315 c5d2 d93f 9a15 b081 7803 6bbf
00000710: cac7 d5ee 8155 f4bf babe 928e 00c3 d2bf
00000720: a7ed 2e50 ba8c eb3f ad18 0707 485e 0040
00000730: 4168 30f7 abee f23f 0813 b490 095c f43f
00000740: d7f3 0826 47a8 df3f b8cc 9207 634b e23f
00000750: cd88 bf63 6502 d73f 767c aa76 b864 d23f
00000760: 1d75 4635 ed4f dcbf b654 54f1 8bd6 e13f
00000770: 54b9 1c72 b199 c73f 1810 755a adbb d33f
00000780: fd04 4aed 233f 7b3f aae7 1616 c305 f5bf
00000790: 2dbc 0cd2 d19a c5bf 628d ce09 b5a6 e63f
000007a0: 7cb2 dba9 cea1 0040 3ea9 48bf 1c88 f23f
000007b0: 4f84 ae95 858e f33f 63ce 66f7 6b92 ce3f
000007c0: 577a 7ccc 41ee dd3f fb21 88f1 ad7c da3f
000007d0: f076 8900 ab01 c33f 31ca 4903 182e dabf
000007e0: 6ddd 1a35 9c67 e03f bef1 0983 e258 d63f
000007f0: 7ce7 c8e2 0b09 d33f 0b76 b1ef 069a ae3f
